…
0,"elapsed":2499,"user":{"displayName":"arsh mishra","photoUrl":"https://lh3.googleusercontent.com/a-/AOh14Gi6u-XxOydpFVOKETbPwJ5auNShlo3a9og96q40Gg=s64","userId":"09593729885082878629"}},"outputId":"d7134608-d47d-4f67-b5ef-013032bd3b9b"},"source":["model.summary()"],"execution_count":12,"outputs":[{"output_type":"stream","text":["Model: \"sequential_3\"\n","_________________________________________________________________\n","Layer (type)                 Output Shape              Param #   \n","=================================================================\n","conv2d_18 (Conv2D)           (None, 46, 46, 64)        640       \n","_________________________________________________________________\n","conv2d_19 (Conv2D)           (None, 44, 44, 64)        36928     \n","_________________________________________________________________\n","max_pooling2d_9 (MaxPooling2 (None, 22, 22, 64)        0         \n","_________________________________________________________________\n","dropout_12 (Dropout)         (None, 22, 22, 64)        0         \n","_________________________________________________________________\n","conv2d_20 (Conv2D)           (None, 20, 20, 64)        36928     \n","_________________________________________________________________\n","conv2d_21 (Conv2D)           (None, 18, 18, 64)        36928     \n","_________________________________________________________________\n","max_pooling2d_10 (MaxPooling (None, 9, 9, 64)          0         \n","_________________________________________________________________\n","dropout_13 (Dropout)         (None, 9, 9, 64)          0         \n","_________________________________________________________________\n","conv2d_22 (Conv2D)           (None, 7, 7, 128)         73856     \n","_________________________________________________________________\n","conv2d_23 (Conv2D)           (None, 5, 5, 128)         147584    \n","_________________________________________________________________\n","max_pooling2d_11 (MaxPooling (None, 2, 2, 128)         0         \n","_________________________________________________________________\n","flatten_3 (Flatten)          (None, 512)               0         \n","_________________________________________________________________\n","dense_9 (Dense)              (None, 1024)              525312    \n","_________________________________________________________________\n","dropout_14 (Dropout)         (None, 1024)              0         \n","_________________________________________________________________\n","dense_10 (Dense)             (None, 1024)              1049600   \n","_________________________________________________________________\n","dropout_15 (Dropout)         (None, 1024)              0         \n","_________________________________________________________________\n","dense_11 (Dense)             (None, 7)                 7175      \n","=================================================================\n","Total params: 1,914,951\n","Trainable params: 1,914,951\n","Non-trainable params: 0\n","_________________________________________________________________\n"],"name":"stdout"}]},{"cell_type":"markdown","metadata":{"id":"OOy_wQ9uGaxH","colab_type":"text"},"source":["# **Compile the Model**"]},{"cell_type":"code","metada
…
